…
    "model = Model(inputs=[input_image], outputs=[output])



outputs": [
    {
     "name": "stdout",
     "output_type": "stream",
     "text": [
      "Model: \"model_1\"\n",
      "_________________________________________________________________\n",
      "Layer (type)                 Output Shape              Param #   \n",
      "=================================================================\n",
      "input_13 (InputLayer)        [(None, 96, 96, 3)]       0         \n",
      "_________________________________________________________________\n",
      "conv2d_5 (Conv2D)            (None, 96, 96, 16)        448       \n",
      "_________________________________________________________________\n",
      "max_pooling2d_5 (MaxPooling2 (None, 48, 48, 16)        0         \n",
      "_________________________________________________________________\n",
      "conv2d_6 (Conv2D)            (None, 48, 48, 32)        4640      \n",
      "_________________________________________________________________\n",
      "max_pooling2d_6 (MaxPooling2 (None, 24, 24, 32)        0         \n",
      "_________________________________________________________________\n",
      "conv2d_7 (Conv2D)            (None, 24, 24, 64)        18496     \n",
      "_________________________________________________________________\n",
      "max_pooling2d_7 (MaxPooling2 (None, 12, 12, 64)        0         \n",
      "_________________________________________________________________\n",
      "conv2d_8 (Conv2D)            (None, 12, 12, 128)       73856     \n",
      "_________________________________________________________________\n",
      "max_pooling2d_8 (MaxPooling2 (None, 6, 6, 128)         0         \n",
      "_________________________________________________________________\n",
      "conv2d_9 (Conv2D)            (None, 6, 6, 256)         295168    \n",
      "_________________________________________________________________\n",
      "max_pooling2d_9 (MaxPooling2 (None, 3, 3, 256)         0         \n",
      "_________________________________________________________________\n",
      "flatten_7 (Flatten)          (None, 2304)              0         \n",
      "_________________________________________________________________\n",
      "dense_44 (Dense)             (None, 1024)              2360320   \n",
      "_________________________________________________________________\n",
      "dense_45 (Dense)             (None, 64)                65600     \n",
      "_________________________________________________________________\n",
      "dense_46 (Dense)             (None, 2)                 130       \n",
      "=================================================================\n",
      "Total params: 2,818,658\n",
      "Trainable params: 2,818,658\n",
      "Non-trainable params: 0\n",


Here’s an overview and key points of the CNN architecture you’ve provided:

Input Layer: Accepts images with the shape defined by input_shape.
Convolutional Layers: Five convolutional layers with increasing filter sizes (16, 32, 64, 128, 256). Each layer uses a (3 \times 3) kernel and ‘relu’ activation function, followed by max pooling with a (2 \times 2) window to reduce spatial dimensions.
…
